semantic_frontend_model.pth (torch, 398525 bytes, 4 tensors)

fc1.weight f4 [128, 768]
-0.01513129 0.024745736 0.014969971 -0.03369868 0.00036433697 0.025668908 0.013526568 0.03491909
-0.06600314 0.022882078 -0.020447964 -0.049461924 0.024808548 -0.030290054 -0.014151922 -0.05423143
0.056382146 0.034612834 0.024923373 0.008955882 -0.0027109038 0.029969918 -0.02929865 0.034739412
0.0016953583 0.040131036 -0.03234272 -0.028974872 -0.0031562317 -0.043016393 -0.04988122 0.01735616
0.047534004 0.011561297 -0.057488848 -0.01321551 0.01055261 0.03958409 -0.03787343 0.07255499
0.0075663878 -0.048268735 0.036962967 0.035300504 -0.021211786 -0.021390356 0.011316811 0.013463152
0.02558085 -0.04325751 0.03751183 0.0031071953 0.0508158 0.005542403 -0.0010296112 0.030874599
-0.034711204 0.0454692 -0.0011078869 -0.012843129 0.0060086013 0.019311985 0.040019315 0.057166774
0.033237036 0.0020168407 -0.027934693 0.005851606 0.015587765 -0.00052883703 0.021815047 -0.04272392
0.011348019 -0.027499495 0.06971286 0.009646013 -0.030511502 -0.006554027 0.023112088 0.029876731
0.025851697 -0.0011939112 0.031256218 0.034365773 0.026041776 -0.023095552 0.0028798315 -0.042464133
0.009716269 -0.062439434 -0.038357813 0.003891103 0.0013673723 0.00858523 0.029171143 -0.040250704
-0.013069803 -0.050209377 -0.054190647 -0.045223195 -0.038338054 -0.0076297387 -0.07512836 -0.034091044
-0.0145365 0.005657479 -0.0010090907 -0.03754157 -0.048511945 -0.024867207 -0.039070405 0.013384421
0.0071876715 0.020754604 0.02305853 0.034359906 -0.040606007 8.042119e-05 -0.071800284 -0.009590251
-0.05158095 0.045297142 0.0015322338 -0.019081289 0.03034885 -0.02818135 0.06423001 0.0070561524
-0.008110567 0.030988475 0.024022486 -0.0030249807 -0.022525998 -0.032060742 -0.02198834 0.0061631454
0.060387477 0.0019440528 -0.04149091 0.007879593 -0.025508976 0.052158114 0.022574058 0.0038483357
0.016676575 0.047991946 0.0049332795 0.002194649 0.05484246 0.060385507 -0.01711277 -0.021440199
0.047039185 0.0074410997 -0.0035134437 0.056214906 -0.026385805 0.012341782 0.021247135 0.014164933
0.009882734 -0.022963585 0.040369 0.028698241 -0.05743867 0.049755435 -0.00159041 -0.016447216
-0.02506031 -0.016237333 0.023369584 0.049300995 -0.003282051 -0.035539657 -0.05944887 -0.019035744
0.009348499 -0.018878939 0.0088122785 0.008193724 -0.025598213 0.039050795 0.00096952904 -0.058516514
0.055704854 -0.037436724 -0.051432773 0.044186756 0.02446723 -0.004552434 -0.02650714 -0.07181076
-0.008186881 -0.03613994 0.0047052763 0.021677617 0.013889876 -0.02077999 0.011036129 -0.048376042
-0.04916889 -0.017664257 -0.047652952 0.057071973 -0.009552882 0.043420207 0.0129273515 -0.00070032367
0.02978568 0.0004661469 0.06786754 0.039890278 0.0077018463 0.05070252 -0.0810816 0.021050941
-0.024225872 -0.027607495 -0.030129524 -0.012733533 -0.0502898 -0.00037033885 0.026573261 -0.009548587
0.032855082 -0.032188017 -0.038831115 -0.01154859 0.01694255 -0.007001785 -0.017673394 -0.044007275
0.011964543 0.009457686 -0.061399568 0.0030657018 0.025210617 -0.045341183 -0.0016616894 -0.030604089
-0.005964454 -0.03854004 0.006610072 0.008612648 -0.054608084 0.056575377 -0.056771122 -0.035769075
0.0012361169 -0.047487516 -0.012182181 0.061389692 0.01735222 0.045432866 0.0035153695 0.009601972
00000000: 3be9 77bc 92b7 ca3c 9c44 753c a107 0abd
00000010: 7b04 bf39 9a47 d23c 8a9e 5d3c 5207 0f3d
00000020: a72c 87bd 3273 bb3c 7d82 a7bc 9698 4abd
00000030: 4c3b cb3c d922 f8bc 77dd 67bc c721 5ebd
00000040: f7f0 663d 30c6 0d3d 1a2c cc3c b1bb 123c
00000050: 6ba9 31bb 7983 f53c b903 f0bc ea4a 0e3d
00000060: c936 de3a 7160 243d cd79 04bd b65c edbc
00000070: c8d8 4ebb f531 30bd 4050 4cbd 812e 8e3c
00000080: 04b3 423d 986b 3d3c 6d79 6bbd de85 58bc
00000090: dbe4 2c3c ed22 223d 2b21 1bbd b697 943d
000000a0: 76ef f73b 70b5 45bd 7b66 173d 4397 103d
000000b0: 57c4 adbc d43a afbc 256a 393c 8d94 5c3c
000000c0: ee8e d13c c92e 31bd 01a6 193d 16a2 4b3b
000000d0: 3a24 503d 0c9d b53b 05f4 86ba baec fc3c
000000e0: 562d 0ebd e93d 3a3d 8436 91ba fd6b 52bc
000000f0: cde3 c43b 2b34 9e3c 4beb 233d b527 6a3d
00000100: 8f23 083d f92c 043b 4cd7 e4bc d4be bf3b
00000110: d363 7f3c a7a1 0aba 78b5 b23c 47ff 2ebd
00000120: 0bed 393c 9f46 e1bc 9ec5 8e3d 500a 1e3c
00000130: 42f3 f9bc 2ac3 d6bb 9055 bd3c 0cc0 f43c
00000140: f0c6 d33c 037d 9cba 8506 003d 20c3 0c3d
00000150: 9055 d53c e232 bdbc 8ebb 3c3b dfee 2dbd
00000160: fc30 1f3c 7ec0 7fbd 151d 1dbd e001 7f3b
00000170: 6739 b33a 11a9 0c3c 52f8 ee3c ecdd 24bd
00000180: ba22 56bc 59a8 4dbd 03f7 5dbd f53b 39bd
00000190: 5d08 1dbd e302 fabb e6dc 99bd 0da3 0bbd
000001a0: 802a 6ebc 6062 b93b 7743 84ba 30c5 19bd
000001b0: 76b4 46bd 50b6 cbbc 4a08 20bd 554a 5b3c
000001c0: 8f86 eb3b 8f05 aa3c 3ee5 bc3c f9bc 0c3d
000001d0: 7c52 26bd cca7 a838 070c 93bd 6e20 1dbc
000001e0: 8c46 53bd 7f89 393d 3cd5 c83a 5d50 9cbc
000001f0: 279e f83c 93dc e6bc 068b 833d 4c37 e73b
00000200: 2fe2 04bc 8bdb fd3c ceca c43c c13e 46bb
00000210: 7188 b8bc 2052 03bd e420 b4bc 36f4 c93b
00000220: dc58 773d 96cf fe3a 5ff2 29bd 6919 013c
00000230: 33f8 d0bc bfa3 553d 3bed b83c 5c34 7c3b
00000240: 509d 883c 3493 443d 59a7 a13b 1ad4 0f3b
00000250: 7da2 603d cb56 773d 1430 8cbc 5ba3 afbc
00000260: 29ac 403d 78d4 f33b ce41 66bb 9a41 663d
00000270: 0b27 d8bc 3035 4a3c 790e ae3c 0914 683c
00000280: 31eb 213c 211e bcbc f759 253d 9318 eb3c
00000290: d044 6bbd 5bcc 4b3d 4e75 d0ba 50bc 86bc
000002a0: 474b cdbc 2804 85bc 9271 bf3c d7ef 493d
000002b0: ae17 57bb 0892 11bd a980 73bd d9f0 9bbc
000002c0: 722a 193c 01a8 9abc 6061 103c f83e 063c
000002d0: 58b3 d1bc baf3 1f3d fe27 7e3a 03af 6fbd
000002e0: c62a 643d 4057 19bd 2cab 52bd 2cfd 343d
000002f0: 806f c83c 962c 95bb 8025 d9bc 8511 93bd
00000300: 4522 06bc 7907 14bd b82e 9a3b 4295 b13c
00000310: 5d92 633c cc3a aabc e1d0 343c f525 46bd
00000320: 5165 49bd a2b4 90bc be2f 43bd 4dc4 693d
00000330: b183 1cbc 63d9 313d 3ecd 533c ed95 37ba
00000340: 1901 f43c 2e65 f439 23fe 8a3d fd63 233d
00000350: c55f fc3b 72ad 4f3d 1c0e a6bd 0673 ac3c
00000360: 5675 c6bc 1d29 e2bc 31d2 f6bc 4fa0 50bc
00000370: adfc 4dbd 0a2a c2b9 2bb0 d93c ad71 1cbc
00000380: 0d93 063d 95d7 03bd 600d 1fbd 4c36 3dbc
00000390: 1acb 8a3c 3b6f e5bb cbc7 90bc f940 34bd
000003a0: ee06 443c 69f4 1a3c 1d7e 7bbd f1e9 483b
000003b0: 7f86 ce3c adb7 39bd 0bcd d9ba 6db5 fabc
000003c0: 7771 c3bb 29dc 1dbd 4e99 d83b 101c 0d3c
000003d0: baac 5fbd 95bb 673d d688 68bd 9882 12bd
000003e0: 3305 a23a 4582 42bd c597 47bc c273 7b3d
000003f0: 3e26 8e3c d017 3a3d 1d62 663b 9751 1d3c

fc1.bias f4 [128]
-0.022537906 -0.025856335 0.04004931 -0.00019413527 -0.015985172 0.012182323 -0.02968711 0.01698445
-0.015804479 -0.007045047 5.918139e-05 -0.018817555 -0.033785194 -0.0039943145 -0.021518262 0.01647928
-0.029668838 0.027378246 0.03506391 0.001588733 0.03340036 0.015412455 -0.015974838 -0.02515605
0.012141466 0.042247 -0.0087923035 0.014913263 0.020749906 0.02853472 0.025168572 -0.018269664
-0.007049462 0.025624597 0.033764906 -0.016788725 -0.033995315 0.01989817 0.026883053 -0.009978401
-0.022222532 -0.007858695 -0.019685443 -0.026467195 -0.015356538 0.0035050684 -0.0266351 -0.025112543
0.008544077 0.030121507 0.030432448 0.00026166244 -0.024230799 0.029605787 0.04476667 -0.03313633
-0.01773088 0.002561372 0.020871691 -0.036473066 -0.013353896 0.05116518 0.02765548 0.034579348
-0.0066734236 -0.014062933 0.033999328 -0.016226621 0.02051424 -0.030981667 -0.000507657 0.0058228616
-0.02306218 -0.006476642 -0.017442532 0.022196421 -0.029587338 -0.030305276 0.03425471 0.022872932
-0.027351253 -0.007385244 0.031852536 -0.012841926 -0.006367662 0.003648896 0.02338221 -0.022758376
-0.0008566788 0.020956177 -0.021337014 -0.002832015 -0.03189189 0.04105727 0.0019823932 -0.0018825628
-0.009553514 0.014612171 -0.0118799675 -0.0015765161 0.006533324 0.03495534 0.011318349 0.019920494
-0.031123636 -0.007788457 0.03189747 -0.019706985 -0.01859116 0.028233578 -0.02427017 -0.028385557
-0.015974617 -0.02464085 0.030937925 -0.02572911 -0.006188765 0.02957848 0.009283934 -0.01522908
-0.0108618615 -0.012196239 -0.01228818 0.014570584 -0.02822775 0.02747786 -0.029733963 -0.0125992615
00000000: 6aa1 b8bc aad0 d3bc bf0a 243d ca90 4bb9
00000010: 56f3 82bc 5e98 473c 6232 f3bc f922 8b3c
00000020: 6578 81bc 23da e6bb 8939 7838 4627 9abc
00000030: 5862 0abd bde2 82bb 1147 b0bc 8eff 863c
00000040: 100c f3bc 5848 e03c 2d9f 0f3d 093d d03a
00000050: d1ce 083d 8684 7c3c aadd 82bc 1014 cebc
00000060: 00ed 463c 310b 2d3d 980d 10bc c256 743c
00000070: b5fb a93c a5c1 e93c 522e ce3c 43aa 95bc
00000080: 2cff e6bb adea d13c 124d 0a3d 8288 89bc
00000090: ac3e 0bbd 7d01 a33c d939 dc3c 727c 23bc
000000a0: 070c b6bc c2c1 00bc 5e43 a1bc bbd1 d8bc
000000b0: fd99 7bbc 4ab5 653b da31 dabc d2b8 cdbc
000000c0: 75fc 0b3c 61c1 f63c 784d f93c bd2f 8939
000000d0: ab7f c6bc d687 f23c 415d 373d f6b9 07bd
000000e0: 5a40 91bc b1dc 273b 1cfb aa3c c864 15bd
000000f0: 4dca 5abc 9492 513d bf8d e23c 13a3 0d3d
00000100: bcac dabb 3768 66bc e142 0b3d b1ed 84bc
00000110: 7b0d a83c 44cd fdbc 4914 05ba b4cd be3b
00000120: e6ec bcbc 033a d4bb a4e3 8ebc 45d5 b53c
00000130: 2561 f2bc c542 f8bc ab4e 0c3d 0460 bb3c
00000140: bc0f e0bc ebff f1bb ce77 023d f166 52bc
00000150: d2a7 d0bb 5122 6f3b 0c8c bf3c c66f babc
00000160: be92 60ba 4aac ab3c f6ca aebc 5499 39bb
00000170: 12a1 02bd ab2b 283d 0aeb 013b 53c0 f6ba
00000180: 5886 1cbc e367 6f3c 32a4 42bc 1aa3 ceba
00000190: 7e15 d63b 552d 0f3d 9970 393c 4e30 a33c
000001a0: fff6 febc 5036 ffbb eca6 023d 8b70 a1bc
000001b0: 7d4c 98bc 1b4a e73c 3cd2 c6bc d488 e8bc
000001c0: 33dd 82bc 9cdb c9bc 8871 fd3c dbc5 d2bc
000001d0: 20cb cabb 924e f23c a41b 183c 6483 79bc
000001e0: f3f5 31bc bcd2 47bc 5d54 49bc 75b9 6e3c
000001f0: e23d e7bc 4019 e13c a494 f3bc 226d 4ebc

fc2.weight f4 [4, 128]
0.10804625 0.058081917 -0.10855146 -0.069043726 -0.028512817 -0.01590652 -0.066121094 -0.03784257
-0.11539622 0.065331005 0.06441452 0.11939314 0.0663432 0.08469111 0.062676266 -0.04851922
0.06702897 0.11688234 0.07370101 0.107072406 -0.122746564 0.11485602 0.050734427 -0.11600254
-0.058562554 0.09224206 -0.020841789 0.027796416 0.06737822 -0.031685445 -0.020600699 0.012425702
-0.0010408754 0.028450374 0.07827405 0.09981409 -0.03380427 -0.013461318 -0.047779243 0.08429837
0.049477976 0.00027373555 0.026967386 0.023569245 -0.019149378 0.08062264 0.14706519 0.059825543
0.0061872625 -0.032233834 0.07351493 0.07927508 0.02910435 0.0061061694 -0.10184635 -0.040611837
-0.048119787 0.006229618 0.036826845 0.057358023 0.045271974 -0.051044505 0.015996944 -0.123046085
0.07488499 0.0817285 -0.112282194 -0.055067196 0.113008365 -0.018636651 -0.07554811 -0.0314383
0.07181261 0.012260394 0.037065446 -0.10387395 -0.058031578 0.04255623 0.019867824 -0.10419076
-0.06295628 -0.041162837 -0.02282449 0.020514732 0.0404713 -0.06406476 -0.1114434 -0.058958247
0.07462778 0.08525085 -0.026638145 0.0557607 -0.032771304 -0.016001754 0.08275523 -0.016439145
-0.08114185 0.102423534 -0.07317413 -0.02469776 0.032650966 0.00096165406 0.1146598 -0.04365863
0.004909354 -0.02312517 -0.020764021 0.06499739 0.04345052 -0.042676017 -0.04829464 0.06929567
-0.0051265 0.007327431 0.05572316 0.073311016 -0.11727004 0.026486771 -0.05829598 -0.07937609
-0.076545134 0.053414613 -0.10495963 0.09941696 -0.061021876 -0.049725037 -0.07858277 0.035342257
-0.019687705 0.035928387 0.0981524 0.006913927 0.060220513 0.05418064 -0.017164681 -0.027310928
-0.11902165 -0.015902227 0.11556366 -0.01992478 0.049048353 0.05231803 -0.08725287 0.025685797
0.06116228 -0.016645731 0.12170133 0.12264826 -0.009128145 -0.07724723 -0.07286043 -0.05249235
0.10313288 0.063186206 -0.12018871 -0.07470778 0.025707714 0.014489452 -0.031585094 0.054185886
-0.022456516 -0.062337328 0.10472279 0.0837327 0.035279535 0.042690482 0.024814826 0.019564155
-0.0488742 -0.057598677 0.027882373 0.036307488 -0.030660683 0.02520077 -0.05429835 0.027424797
-0.047275066 -0.01929412 0.12500697 0.10153508 0.122052535 0.09873554 -0.11294399 0.03831964
0.05231663 0.046569146 0.037660345 0.008039014 0.060801234 -0.05642921 0.0636814 0.03094942
0.077525005 -0.054788657 0.039306886 0.016469022 0.030368235 -0.00863217 -0.0653925 -0.057366755
-0.065905385 0.07034613 0.042688318 -0.112750515 0.0010833314 0.05238199 0.040910006 -0.051519178
-0.04876432 0.017437723 0.10794881 0.11183294 0.044656154 -0.0015900456 0.09355506 -0.018373955
0.076826304 -0.07926952 -0.07259052 0.064410254 0.08224406 -0.10893677 -0.04280447 0.0666298
-0.08653611 0.089399934 -0.081872106 -0.015081177 -0.10317012 -0.010106035 0.018419228 0.064367086
0.087772526 -0.06386792 0.02762502 0.06936389 0.045423474 -0.07591392 -0.009395134 0.053874355
-0.024028994 -0.03952909 0.056684464 0.02220673 0.09803423 0.13907866 0.010623072 -0.09264587
0.029093929 -0.00907963 -0.053863212 -0.044913094 -0.029153856 -0.052552998 0.020982139 0.021719972
00000000: 5a47 dd3d 4ee7 6d3d 3a50 debd cc66 8dbd
00000010: b693 e9bc 644e 82bc 7f6a 87bd d000 1bbd
00000020: da54 ecbd 43cc 853d c3eb 833d 6484 f43d
00000030: f2de 873d 8872 ad3d 6a5c 803d 17bc 46bd
00000040: 7c46 893d 0260 ef3d 8ef0 963d c748 db3d
00000050: 8d62 fbbd a239 eb3d e7ce 4f3d bd92 edbd
00000060: 4adf 6fbd 68e9 bc3d 66bc aabc 4fb5 e33c
00000070: 98fd 893d 99c8 01bd ccc2 a8bc 2c95 4b3c
00000080: fc6d 88ba c210 e93c 254e a03d 546b cc3d
00000090: 5976 0abd dc8c 5cbc 2bb4 43bd a0a4 ac3d
000000a0: 6ba9 4a3d 2a84 8f39 b5ea dc3c 4a14 c13c
000000b0: 28df 9cbc 7c1d a53d 4298 163e a10b 753d
000000c0: 85be ca3b a007 04bd ff8e 963d f95a a23d
000000d0: 3f6c ee3c 4316 c83b d294 d0bd 9958 26bd
000000e0: 4119 45bd d321 cc3b bfd7 163d 3ff0 6a3d
000000f0: 1b6f 393d 0b14 51bd 060c 833c 96ff fbbd
00000100: 4d5d 993d 4661 a73d 35f4 e5bd 248e 61bd
00000110: ee70 e73d e4ab 98bc f8b8 9abd 72c5 00bd
00000120: 7d12 933d d2df 483c f0d1 173d debb d4bd
00000130: 85b2 6dbd 714f 2e3d d9c1 a23c f761 d5bd
00000140: 39ef 80bd 5d9a 28bd 6dfa babc 830e a83c
00000150: 3cc5 253d 6334 83bd 703c e4bd 347e 71bd
00000160: 73d6 983d ff97 ae3d 3d38 dabc 5565 643d
00000170: 343b 06bd 1c16 83bc 937b a93d 63ab 86bc
00000180: b32d a6bd 6ec3 d13d 51dc 95bd f552 cabc
00000190: 05bd 053d 8317 7c3a c2d2 ea3d 64d3 32bd
000001a0: a5de a03b ff70 bdbc 4f19 aabc 5a1d 853d
000001b0: 2cf9 313d 0ccd 2ebd 9ad0 45bd e3ea 8d3d
000001c0: 33fc a7bb f21a f03b f83d 643d 1624 963d
000001d0: 462b f0bd c9fa d83c c4c7 6ebd ee8f a2bd
000001e0: b2c3 9cbd 48c9 5a3d 13f5 d6bd 1e9b cb3d
000001f0: 13f2 79bd 7bac 4bbd 01f0 a0bd 0bc3 103d
00000200: 1c48 a1bc a529 133d 2004 c93d 398e e23b
00000210: c9a9 763d 85ec 5d3d f29c 8cbc 2bbb dfbc
00000220: 9fc1 f3bd 6345 82bc a4ac ec3d 4b39 a3bc
00000230: ede6 483d 6e4b 563d a2b1 b2bd 056b d23c
00000240: 4d85 7a3d a15c 88bc 8c3e f93d 032f fb3d
00000250: 378e 15bc cc33 9ebd d937 95bd 3802 57bd
00000260: 5537 d33d c567 813d 8025 f6bd 6400 99bd
00000270: fc98 d23c 2b65 6d3c 5f5f 01bd 05f2 5d3d
00000280: baf6 b7bc 6d55 7fbd e778 d63d 0d7c ab3d
00000290: 4681 103d 37dc 2e3d 7648 cb3c 0245 a03c
000002a0: 5030 48bd 97ec 6bbd 9369 e43c 29b7 143d
000002b0: 1d2c fbbc d871 ce3c f267 5ebd f8a9 e03c
000002c0: 80a3 41bd b40e 9ebc d401 003e a0f1 cf3d
000002d0: aef6 f93d dc35 ca3d 2e4f e7bd 0ef5 1c3d
000002e0: f649 563d 4abf 3e3d bc41 1a3d 12b6 033c
000002f0: b70a 793d 5122 67bd 656b 823d a389 fd3c
00000300: 6ec5 9e3d 126a 60bd 4200 213d 0bea 863c
00000310: cec6 f83c f26d 0dbc 81ec 85bd 67f9 6abd
00000320: 67f9 86bd a211 903d f2d9 2e3d bee9 e6bd
00000330: 92fe 8d3a 7f8e 563d 4091 273d c605 53bd
00000340: 18bd 47bd 8ed9 8e3c 4414 dd3d ab08 e53d
00000350: 5fe9 363d 1469 d0ba cc99 bf3d fa84 96bc
00000360: 1c57 9d3d 0f58 a2bd 57aa 94bd 86e9 833d
00000370: 936f a83d 3e1a dfbd bd53 2fbd 3475 883d
00000380: d839 b1bd 5017 b73d 90ac a7bd 0b17 77bc
00000390: db4a d3bd c893 25bc ece3 963c e4d2 833d
000003a0: 15c2 b33d 2fcd 82bd de4d e23c a80e 8e3d
000003b0: f70d 3a3d c278 9bbd 0cee 19bc 5bab 5c3d
000003c0: 74d8 c4bc 41e9 21bd f82d 683d e3ea b53c
000003d0: 2cc6 c83d a36a 0e3e 650c 2e3c 1ebd bdbd
000003e0: 6456 ee3c bac2 14bc ac9f 5cbd cbf6 37bd
000003f0: 11d4 eebc d041 57bd bce2 ab3c 15ee b13c

fc2.bias f4 [4]
-0.06623481 -0.02014612 -0.0363502 0.019590503
00000000: 1ea6 87bd 7a09 a5bc f3e3 14bd 437c a03c
