trained_semantic_frontend_model.pth (torch, 14501 bytes, 2 tensors)

fc.weight f4 [4, 768]
00000000: 193e 94be 1e44 95be e048 7a3e 34df 79be
00000010: 5fe5 adbe 4d35 b33e 8fc2 453e 6508 903e
00000020: 4f92 3bbf 3640 4abe 372b 91bf b21e 353f
00000030: 48d8 793d 2d98 723e ee5e dcbe a0a9 e03b
00000040: fef8 f8be 8171 e2bc 40e8 b6be 4f26 8ebd
00000050: 50bc 40bd a129 693e 3c86 403e b228 cebe
00000060: b794 203e e904 10bf 23d3 73bf 3924 2e3f
00000070: 8d10 8f3e db9e aabc 9f66 1bbf 0c5a be3e
00000080: 6fe3 6bbe 8032 6f3d ea09 c7bd 1ca6 8abe
00000090: 24dd a93d 3d61 18bf 0b4d 3d3f a648 303f
000000a0: 4122 1c3f 1b48 2a3e 301b 6a3e 69f7 39be
000000b0: ed7a 1ebf cba6 b1be 9812 5bbd dbc5 043f
000000c0: 2eef 283f 1981 54be 7f2d 8dbe 7908 1a3f
000000d0: a552 0f3d ff4d 733d 227d 30be db14 97be
000000e0: 4887 39bd 2862 e83d 5b99 d13e 63c3 8c3d
000000f0: 6e87 b4be 1241 f2be 4cef 233f 192a 47be
00000100: 5110 1c3d d66d 003d 8f1c 13be 3475 c6be
00000110: aa5a f6bc 4cf5 5ebe cbfa 0f3e 0084 10bf
00000120: 7dc2 bebe 8b42 22bf f83d e63e a8ae 023f
00000130: 227c 25be 9167 b33d 365f 9f3e bc0c 78bd
00000140: c298 67be b135 c5bb 32f6 c93d 0dc2 8a3e
00000150: f57d 17be 3167 a8bd c7bc a23c d024 c73e
00000160: 7ffe bdbe 9f7e d33c 0e84 eebc 7147 86bd
00000170: 596f c63e 7369 733d 3e95 ddbd edd7 e4bc
00000180: e009 1abe 67ee 3ebe f282 973e eba1 893e
00000190: cdf0 563d c615 0d3f 287c 1e3f f1cc 5bbe
000001a0: bee6 3bbe 9320 213c 4a05 b2be ba4a 163e
000001b0: 7f44 85be 4c1e cf3c 16df f93c b903 0c3f
000001c0: 6147 55bd f882 25be 99bf a03e 4baf 6c3e
000001d0: 3a37 29be 47f8 34be e169 073e b818 ba3e
000001e0: 717f b13e bd16 32bd 7687 e7be 6bd9 dfbe
000001f0: feab d73e da69 f5be 609f 51bf 25e5 513e
00000200: 5b3e 8d3e 0f40 1bbc f151 45bb d6d0 7d3e
00000210: 91a5 c8be 20b4 afbd 3bc9 76be a0b5 0a3d
00000220: 78bd 413d f011 edbd 8dd1 28be d928 6c3d
00000230: 07b2 b43d 9ac5 4cbc 1608 dcbc d363 56be
00000240: e34d c73d cb86 2e3f 608f 973e c5e3 773d
00000250: c4cb 433e 9eba 01bf 3754 aa3d 23c8 693e
00000260: a0d1 643f ec35 d6be 7747 793d 368a 1d3f
00000270: b6a2 9bbd 1ff6 e13d 7f34 34be 6a36 ef3d
00000280: dec0 193e 55f9 963e 28f9 98be c237 8cbd
00000290: 0df9 66bc 3f3e 82bd fd68 a93d 541c ed3e
000002a0: b151 36be e3fb 173e 3b47 933e e39f 44be
000002b0: 2b52 53be 5e2c 91bd 0886 683d dcf2 d83e
000002c0: 6fc2 61be b8bb 97be cdfc 34bc 5999 e0bd
000002d0: 8eda 2dbe 92e6 be3e e123 54be f50b f5bd
000002e0: d04b 3c3e d1fd 50bd a081 283e 9160 d03d
000002f0: 0258 08bf 7614 d93c 787f e63e 77bd a53c
00000300: e7a8 4a3d 86a2 013e 7240 02bf 81bb c13d
00000310: 6723 23be 3859 913e dec0 acbe b979 a6be
00000320: 1bc4 d2bd f393 cabe 5ecc ca3d 4a9d 21bd
00000330: 74f3 40bd 1087 bf3a 4807 ad3e 14ec 603e
00000340: bb3f e93e 5c7c a23d 6c2e b93e 23dd 033f
00000350: c57b 42bf 598d 44be 6b9a 0d3f 07b2 12bc
00000360: 65b2 093b d6ee bfbe 44bf a0be 8c15 893e
00000370: 48e2 c23d 8ea1 103d c94d 08be e694 2ebe
00000380: 1c90 853e 2d81 b63e 8d26 c43d d776 11bf
00000390: 7c84 81be 46f8 af3d 5b7a 0ebf 44f7 2cbe
000003a0: 676f bcbe 3df2 1fbe 3675 223e 0e61 ba3e
000003b0: a8cc 743c 891e 6dbd e309 2c3e dfa8 2bbf
000003c0: f969 a63e 4f3e 123f 6a9d 33be 75f6 e2bd
000003d0: ead9 9a3d 20d6 03be 5b7d c1be ee2b bcbe
000003e0: a11c dabd 0e8c cabe 010d a53d 881b 8bbe
000003f0: fa9f 93bc b16f 053f 9a7b ad3e cb27 ee3c
-0.28953627 -0.29153532 0.24441862 -0.24401551 -0.3396406 0.35001603 0.193125 0.28131405
-0.73270124 -0.19751057 -1.1341313 0.7074996 0.060997277 0.23690863 -0.43041176 0.0068561584
-0.48627466 -0.027642014 -0.35724068 -0.069409005 -0.04705459 0.22769786 0.18801206 -0.40265423
0.1568173 -0.5625749 -0.95244044 0.6802402 0.27942315 -0.020827701 -0.6070346 0.37178075
-0.23035978 0.05839777 -0.09718688 -0.27079856 0.08294132 -0.59523374 0.73945683 0.6886085
0.6098977 0.16629069 0.22861934 -0.18160786 -0.6190632 -0.34697565 -0.05348453 0.51864403
0.6598996 -0.20752372 -0.27573773 0.6016918 0.034990925 0.059400555 -0.17235234 -0.295081
-0.04529503 0.11346847 0.40937313 0.068732046 -0.35259575 -0.4731527 0.64037013 -0.19449653
0.038101498 0.031354748 -0.14366363 -0.38761294 -0.030072529 -0.21773261 0.14060514 -0.56451416
-0.37257758 -0.63382787 0.44969153 0.51047754 -0.16160634 0.08759988 0.31127328 -0.06055902
-0.22616866 -0.0060183634 0.09861411 0.27101174 -0.14794143 -0.08222807 0.019865407 0.38895273
-0.37108228 0.025817214 -0.029115703 -0.06556595 0.38756827 0.059426736 -0.10819481 -0.027934993
-0.1504283 -0.18645631 0.2959209 0.26881346 0.05247574 0.5511135 0.619082 -0.21464898
-0.1834974 0.009834426 -0.3476966 0.14676943 -0.2602882 0.025283001 0.030501883 0.5469318
-0.052070025 -0.16163242 0.31396177 0.23113744 -0.16524974 -0.17672835 0.13223983 0.36346984
0.34667543 -0.043478716 -0.45220536 -0.43720564 0.42123407 -0.4793232 -0.8188381 0.20497568
0.27586636 -0.009475722 -0.0030108655 0.24786696 -0.39188817 -0.08579278 -0.24100201 0.033864617
0.047299832 -0.11575687 -0.16486187 0.057656143 0.088230185 -0.012498284 -0.026859324 -0.20936517
0.097316526 0.6817443 0.29601574 0.060519952 0.19120699 -0.5067538 0.08316844 0.22830252
0.8938236 -0.41838014 0.06085917 0.6153902 -0.07599394 0.11033272 -0.1759815 0.116803005
0.15014979 0.294871 -0.2987759 -0.068465725 -0.014097464 -0.06359529 0.08271978 0.46310675
-0.178046 0.14842181 0.28765282 -0.19201617 -0.20636813 -0.070885405 0.056768447 0.42372787
-0.22046827 -0.29635406 -0.0110466005 -0.10966749 -0.16977903 0.37285286 -0.20716812 -0.11965171
0.18388295 -0.05102331 0.16455698 0.101746686 -0.5325929 0.026499014 0.45019126 0.020231945
0.049477484 0.12659654 -0.50879586 0.09459592 -0.15931474 0.2838838 -0.33740896 -0.32514742
-0.102913104 -0.39566 0.09902261 -0.039456643 -0.047107175 0.0014612395 0.33794618 0.21965057
0.45556435 0.07933876 0.3616823 0.515093 -0.7597011 -0.19194545 0.5531375 -0.008953578
0.0021010872 -0.37486905 -0.31395924 0.2677425 0.09515816 0.03531032 -0.13310923 -0.17048988
0.2608651 0.35645428 0.095776655 -0.5682196 -0.2529639 0.08592276 -0.5565545 -0.168912
-0.36803743 -0.1561975 0.15865025 0.36402172 0.014941372 -0.05789045 0.16800646 -0.6705455
0.32502726 0.57126325 -0.17540517 -0.11082164 0.07561095 -0.12874651 -0.3779095 -0.36752266
-0.10649992 -0.39559978 0.08059121 -0.27169442 -0.018020619 0.5212355 0.33883363 0.02907171

fc.bias f4 [4]
00000000: 0548 193d 230d 5b3d 4304 06bd c809 0bbc
0.0374222 0.053479325 -0.032718908 -0.008486219
